tensor.pt (torch, 14913 bytes, 12 tensors)

weight f4 [128, 4]
0	0x3be06534	0.006848002
1	0x3ec5f427	0.38662836
2	0x3efb3153	0.4906107
3	0xbddeefe1	-0.10885597
4	0x3b81b254	0.003958026
5	0xbe7d579c	-0.24740452
6	0xbe889009	-0.2667239
7	0x3efe8b06	0.4971544
8	0xbdacfb7e	-0.08446406
9	0xbecd3d07	-0.40085623
10	0xbe4959eb	-0.19663207
11	0xbe109296	-0.14118418
12	0x3ee5fd3a	0.4491976
13	0x3e7af878	0.24508846
14	0x3eb5bb86	0.35494632
15	0x3e2b9f48	0.1675998
16	0xbdcb1378	-0.09915823
17	0xbe9043f4	-0.28176844
18	0x3e9b3dbe	0.30320543
19	0xbe2c637c	-0.16834825
20	0x3cbb940b	0.02289774
21	0x3eed0e36	0.46299905
22	0xbefc3e9d	-0.4926652
23	0xbef09931	-0.46991876
24	0x3ddb6f60	0.107146025
25	0x3eb620ba	0.35571843
26	0x3ec0f970	0.37690306
27	0x3ee7ef95	0.45299974
28	0x3e41de0d	0.18932362
29	0x3e829ebb	0.25511727
30	0xbd17e906	-0.037087463
31	0x3d2aeb19	0.041728113
32	0x3ef54eb7	0.47911617
33	0x3e7570b0	0.23968768
34	0xbec344c2	-0.38138396
35	0x3ed98755	0.42486063
36	0xbee5da56	-0.4489314
37	0xbec3ed2c	-0.38266885
38	0xbecd8f2b	-0.4014829
39	0xbc9c76ad	-0.019099558
40	0xbe1040bd	-0.14087196
41	0xbebc2d14	-0.36753142
42	0x3c8690a9	0.016426401
43	0x3d7b7ff7	0.061401334
44	0xbeacc148	-0.33741212
45	0xbec2330e	-0.37929577
46	0xbc8d6060	-0.01725787
47	0xbdf71130	-0.12063825
48	0xbe062aea	-0.13102308
49	0x3dc2c339	0.09509892
50	0xbe94f108	-0.29090142
51	0x3ed05c3a	0.40695363
52	0xbe89f213	-0.269425
53	0x3eca4ac7	0.39510176
54	0x3ef45282	0.47719198
55	0xbeed0e8c	-0.4630016
56	0xbdd8302d	-0.10556064
57	0xbeae8c6d	-0.3409151
58	0xbdebb8ef	-0.11509883
59	0xbd4266ed	-0.04746144
60	0x3dfd43e0	0.12366462
61	0x3ec7d173	0.39026985
62	0x3ef0857b	0.46976838
63	0x3ed8d010	0.4234624
64	0x3e0656fb	0.13119118
65	0xbe965980	-0.29365158
66	0xbd85f4ed	-0.065408565
67	0xbee76214	-0.45192015
68	0xbebeb566	-0.3724777
69	0xbe5d76dd	-0.21627374
70	0xbe718f8b	-0.23589914
71	0x3d7e0318	0.06201467
72	0xbd8758f8	-0.06608766
73	0xbeae4655	-0.34038034
74	0xbdd84503	-0.10560038
75	0x3a03b3cc	0.0005024045
76	0x3ebe7b56	0.37203473
77	0x3efb4185	0.49073425
78	0xbe51ce9a	-0.20488968
79	0x3e8bb6f7	0.2728803
80	0xbe6f96e4	-0.23397404
81	0x3ebf1780	0.37322617
82	0xbda8c503	-0.08240702
83	0xbe8d7422	-0.27627665
84	0xbef85b77	-0.48507282
85	0xbe86e911	-0.2634969
86	0xbd2eb780	-0.042655468
87	0x3e76c267	0.24097596
88	0xbeea453e	-0.45755953
89	0xbeb0e36d	-0.34548512
90	0x3c61af8c	0.013774764
91	0xbc1f3a1a	-0.009718442
92	0x3e93acee	0.28842872
93	0xbed1ff1f	-0.41014954
94	0x3e26224d	0.16224022
95	0xbe91f05f	-0.285037
96	0xbe2d1700	-0.16903305
97	0xbee71f87	-0.4514124
98	0x3cd87619	0.0264235
99	0xbe18c99a	-0.14920655
100	0xbee1d873	-0.4411045
101	0x3ef7dcc2	0.48410612
102	0x3ec26a41	0.3797169
103	0xbcba2f6d	-0.022727692
104	0xbef4b8b4	-0.47797167
105	0x3e662355	0.22474416
106	0x3d794c3d	0.060863722
107	0x3a90fa8b	0.0011060996
108	0xbebacd4c	-0.36484754
109	0x3ec5b769	0.38616493
110	0x3e9abdd1	0.30222943
111	0x3edec0fe	0.43506616
112	0xbe3c36aa	-0.18380228
113	0x3e5dd685	0.21663864
114	0xbe8288db	-0.25495037
115	0xbe42fc58	-0.19041574
116	0x3e8143bc	0.2524699
117	0xbeb2bba2	-0.34908777
118	0xbe0b5f0c	-0.13610476
119	0xbe1eba7c	-0.15500826
120	0x3edc259b	0.4299744
121	0xbec28ba2	-0.37997156
122	0x3e84e0f9	0.2595289
123	0x3e618eb2	0.2202709
124	0x3ea4e31f	0.3220453
125	0x3dc13e5a	0.09435721
126	0x3eb637c5	0.35589424
127	0xbe192949	-0.14957155
128	0x3e095410	0.13410974
129	0xbd99ac38	-0.07503551
130	0xbeb7bfae	-0.35888427
131	0xbd061d90	-0.032743037
132	0xbdc4703d	-0.0959172
133	0x3e80ac11	0.25131276
134	0xbddfc9f9	-0.10927195
135	0xbeb41642	-0.3517323
136	0x3edf6a59	0.43635824
137	0x3e9a8f4f	0.3018746
138	0x3ecf7741	0.4052067
139	0xbe4b2b0e	-0.19840643
140	0x3da87bdb	0.082267486
141	0x3e96b07c	0.29431522
142	0xbb362916	-0.0027795485
143	0xbe906068	-0.28198552
144	0x3ea53c27	0.32272455
145	0x3e664afb	0.2248954
146	0x3eaaa1ab	0.33326468
147	0x3d8272f3	0.06369581
148	0xbe44e38e	-0.1922743
149	0x3ec3a274	0.3820988
150	0x3ed32aa8	0.41243482
151	0x3e1d5210	0.15363336
152	0xbed58c65	-0.41708675
153	0x3cf4b375	0.029870728
154	0x3e705771	0.23470856
155	0xbdef865e	-0.116955504
156	0x3db3aadb	0.087728225
157	0x3ee1bf6e	0.44091362
158	0x3dc21c81	0.09478093
159	0x3e8adea1	0.27122977
160	0x3d05a2a0	0.032625794
161	0x3ec40cd1	0.38291028
162	0xbea0a3a8	-0.3137486
163	0x3ed10b5c	0.4082898
164	0xbee4c2f8	-0.4468
165	0x3c14a963	0.009073588
166	0xbecfeecd	-0.40611878
167	0xbe493577	-0.19649301
168	0xbe891f2b	-0.26781592
169	0xbe74b2ff	-0.23896407
170	0xbccf1602	-0.025279049
171	0x3e30005a	0.17187634
172	0xbd3dafce	-0.04631024
173	0x3e8c881a	0.27447587
174	0xbeb7ffd9	-0.35937384
175	0xbd07ccdc	-0.033154353
176	0x3c78683e	0.015161572
177	0x3e9c2b8d	0.30501977
178	0xbdeb8a45	-0.11500982
179	0xbe547b1d	-0.20750089
180	0xbe6beff5	-0.23040755
181	0xbef5a9f7	-0.47981235
182	0xbed0d1f9	-0.40785196
183	0xbeed1c38	-0.46310592
184	0x3c884eca	0.016639132
185	0x3e8c5730	0.2741027
186	0x3e91f2a4	0.28505433
187	0xbd187084	-0.03721668
188	0x3e6c2098	0.23059309
189	0x3e241728	0.16024458
190	0x3e2d95c0	0.16951656
191	0x3e277dbc	0.16356558
192	0xbe8793ec	-0.26480043
193	0xbea4acc5	-0.32163063
194	0xbeac6809	-0.33673123
195	0xbddf91cf	-0.10916483
196	0xbe9dcc00	-0.30819702
197	0xbe2d4760	-0.16921759
198	0xbe94c6a0	-0.2905779
199	0x3ed89669	0.42302254
200	0xbbbe43a6	-0.005806404
201	0x3eb4c986	0.3531
202	0x3e1629a9	0.1466433
203	0x3eeff39f	0.46865556
204	0x3ef84792	0.48492104
205	0xbef24299	-0.47316435
206	0x3df5caf8	0.12001604
207	0xbebb4ac8	-0.3658049
208	0x3e2fd6b0	0.1717174
209	0xbdb43e20	-0.08800912
210	0x3dd189e8	0.10231382
211	0xbe4eaa24	-0.20182091
212	0xbda65009	-0.08120734
213	0xbc59dce7	-0.013297296
214	0xbe39a001	-0.18127443
215	0x3ef5a3b9	0.47976473
216	0xbed581e7	-0.4170067
217	0xbd4e8f38	-0.050429553
218	0x3e8bc2bc	0.27297008
219	0xbec2a836	-0.3801896
220	0xbeeabb0a	-0.45845824
221	0x3d636d20	0.05552399
222	0xbeb7a2a4	-0.35866272
223	0x3d823c88	0.06359202
224	0x3e6daaf2	0.23209742
225	0x3ce667d3	0.02812568
226	0x3d9751d6	0.07388656
227	0xbea337d8	-0.31878543
228	0x3e086fab	0.13323848
229	0x3dbe629f	0.09296154
230	0xbe2281f6	-0.15869889
231	0xbd3f609b	-0.04672299
232	0xbefdb8c8	-0.4955504
233	0xbe7fd208	-0.24982464
234	0x3e0b5681	0.13607217
235	0x3d93e58c	0.07221517
236	0xbe230f70	-0.15923858
237	0xbea333f8	-0.31875587
238	0x3ee4b914	0.44672453
239	0x3d409971	0.047021333
240	0xbd440348	-0.04785469
241	0x3d59a8b3	0.0531394
242	0xbee2e214	-0.4431311
243	0xbd176563	-0.036961924
244	0xbd908a88	-0.07057673
245	0x3d148830	0.03626269
246	0xbef0444a	-0.469271
247	0x3c4126c0	0.011789024
248	0xbebdc9e9	-0.37068108
249	0xbc53a29a	-0.012917185
250	0x3ed2da58	0.41182208
251	0x3ef68615	0.4814917
252	0x3e07f84e	0.13278314
253	0x3ebccb4c	0.36873853
254	0x3e111ffd	0.14172359
255	0xbee5c4f5	-0.4487683

bias f4 [128]
0	0x3ddbacc1	0.107263096
1	0x3e8b8d0d	0.2725605
2	0xbe75939e	-0.23982093
3	0xbec4324c	-0.38319623
4	0xbed3083a	-0.41217214
5	0xbeaa17e3	-0.3322135
6	0xbef13fa6	-0.47118872
7	0x3e13d4e2	0.14436677
8	0xbe477fd5	-0.19482358
9	0x3ed862a5	0.4226276
10	0xbe8b9494	-0.27261794
11	0xbef79704	-0.48357403
12	0x3e912dd9	0.2835529
13	0xbeda2350	-0.42605066
14	0xbdc921e8	-0.0982092
15	0xbb0754ce	-0.0020649913
16	0x3d0a8e6e	0.033827238
17	0xbe07b4d8	-0.1325258
18	0x3dcc4800	0.099746704
19	0x3d8207f0	0.0634917
20	0xbe16f551	-0.14742018
21	0xbd394a1d	-0.045236696
22	0xbeac8e98	-0.3370254
23	0xbdb0adb4	-0.08626881
24	0x3eaed4b9	0.3414667
25	0x3e26eed1	0.16302039
26	0x3e161e39	0.14659967
27	0x3ce42f8c	0.027854703
28	0xbe9cdac2	-0.3063565
29	0xbeeb5146	-0.45960444
30	0xbd2e81c1	-0.04260421
31	0x3ed0b688	0.4076426
32	0xbe19a018	-0.15002477
33	0x3e0123c4	0.126113
34	0x3da835ec	0.0821341
35	0xbe557436	-0.20845112
36	0x3ef30869	0.47467354
37	0xbe7d2dd7	-0.24724518
38	0x3ed31505	0.41226974
39	0x3d41865c	0.047247276
40	0x3df474f0	0.119363666
41	0xbe87eae5	-0.26546398
42	0x3ea2d1b6	0.31800622
43	0x3ed8fea5	0.42381778
44	0x3e68502d	0.22686835
45	0x3d558b67	0.052134898
46	0x3e7bfb71	0.24607636
47	0xbe8e0c26	-0.27743644
48	0x3d3d2276	0.046175443
49	0x3e0717bb	0.13192646
50	0x3c379e24	0.011207137
51	0xbea0c083	-0.31396875
52	0xbefcca92	-0.493733
53	0x3d897b22	0.06712939
54	0x3ee39d46	0.44455928
55	0xbe815f52	-0.25268036
56	0x3e15b0d0	0.1461823
57	0x3e3edb5d	0.18638368
58	0x3eb72b4a	0.35775214
59	0xbc24e0d7	-0.010063372
60	0xbdcd48aa	-0.10023625
61	0xbe998432	-0.2998367
62	0x3d0379e1	0.032098655
63	0xbdf8f658	-0.12156361
64	0x3eff4dc9	0.49864033
65	0x3e21a80c	0.15786761
66	0x3e63bd53	0.2224019
67	0x3ef26dab	0.47349295
68	0xbd6de3cb	-0.05807857
69	0x3d7b92b7	0.061419215
70	0x3ed53fda	0.41650277
71	0x3e98e071	0.29858735
72	0x3df9431b	0.121710025
73	0x3ef9db45	0.48800102
74	0xbe1a75ec	-0.15084046
75	0xbe4c9e25	-0.19982202
76	0x3ed4554b	0.41471323
77	0xbdba4ce0	-0.09096694
78	0xbea80677	-0.32817432
79	0xbeb3314c	-0.34998548
80	0x3e962331	0.29323724
81	0x3d5ef800	0.05443573
82	0xbca04820	-0.019565642
83	0xbefbe222	-0.49195963
84	0xbef53520	-0.47892094
85	0xbe9ddc4a	-0.3083213
86	0x3e9c35f1	0.30509904
87	0xbdce3a1b	-0.100696765
88	0x3d556235	0.05209561
89	0xbd5b40b0	-0.053528488
90	0xbc5a95d9	-0.0133413905
91	0xbe4df4c7	-0.20112906
92	0x3e379448	0.17927659
93	0xbe9b28b6	-0.30304497
94	0xbe08c2ae	-0.13355514
95	0xbebb23e7	-0.3655083
96	0x3eeb048a	0.459019
97	0x3e28ff6f	0.1650369
98	0x3ecf16f7	0.40447208
99	0xbdf3413b	-0.11877676
100	0x3e102cb7	0.14079557
101	0xbe0fc088	-0.14038289
102	0xbe0b1b9d	-0.13584752
103	0xbe96d745	-0.29461113
104	0xbea1f9ec	-0.31635988
105	0x3e567cef	0.20946096
106	0xbe5d239b	-0.21595614
107	0x3e38f617	0.18062626
108	0xbde776dc	-0.113019675
109	0x3eda045c	0.4258145
110	0x3ea43576	0.32072037
111	0xbd3f2696	-0.046667658
112	0xbef8eb55	-0.48617044
113	0x3e66d04f	0.22540401
114	0x3efef4b7	0.49796078
115	0x3eced548	0.40397096
116	0x3e4d34da	0.20039693
117	0xbe4d78ca	-0.20065609
118	0xbee76ff3	-0.45202598
119	0x3dbb9dd1	0.091609605
120	0x3ee50938	0.44733596
121	0xbefa3954	-0.48871863
122	0x3eb5d01b	0.35510334
123	0xbd7c562d	-0.06160562
124	0xbd4b982f	-0.04970568
125	0xbe130159	-0.14355983
126	0xbe898064	-0.26855767
127	0xbef6867a	-0.48149472

weight f4 [2, 128]
0	0x3da51f3a	0.080625966
1	0xbd7afd3b	-0.061276656
2	0xbca86190	-0.020554334
3	0xbd533a4d	-0.05156927
4	0x3d3fcec7	0.046828058
5	0x3d1572eb	0.036486547
6	0x3d8fc3a9	0.07019741
7	0xbd39de3b	-0.04537795
8	0xbda7c463	-0.08191755
9	0x3c0a4856	0.008440098
10	0x3d941fcd	0.07232628
11	0x3d12571a	0.035727598
12	0xbd936a9a	-0.07198067
13	0x3d2afe7a	0.041746594
14	0x3d4bb262	0.049730666
15	0x3d53e2fc	0.05173014
16	0x3c04553c	0.008076962
17	0x3daba312	0.083807126
18	0xbdb47340	-0.08811045
19	0x3d90771a	0.07053967
20	0x3c83cb07	0.016088022
21	0x3cdc4bb0	0.02689156
22	0xba2b9c48	-0.000654642
23	0xbd760025	-0.06005873
24	0x3d6a6ebc	0.05723451
25	0xbd1337f7	-0.035942044
26	0xbca3a60e	-0.019976642
27	0xbd6b8b12	-0.057505675
28	0x3c81edf0	0.015860528
29	0x3d89c2c6	0.06726603
30	0xbcbce8a3	-0.023060149
31	0xbd1a9de7	-0.037748244
32	0x3c4f3841	0.012647689
33	0xbd50b266	-0.050951384
34	0x3c075380	0.008259654
35	0x3c3364a7	0.01094929
36	0xbcdc7a6a	-0.02691384
37	0xbd1e4964	-0.03864421
38	0xbbe7597e	-0.007060229
39	0x3d403973	0.046929788
40	0xbd1e13e3	-0.038593184
41	0xbd7e6fad	-0.06211822
42	0x3d86772e	0.065657005
43	0xbd7c9802	-0.061668403
44	0xbd124290	-0.03570801
45	0xbcb65371	-0.022256585
46	0xbd660dbd	-0.056165446
47	0xbcee804e	-0.029113915
48	0x3d0c12f6	0.03419777
49	0xbd87dbab	-0.06633695
50	0x3d2f5103	0.04280187
51	0x3c922e94	0.017844476
52	0xbd5fabe7	-0.0546073
53	0xbca5c4cf	-0.020235447
54	0x3db26949	0.08711488
55	0x3d042e5a	0.032270767
56	0x3b9dc0b5	0.0048142322
57	0x3d93adfb	0.072109185
58	0xbda65cd3	-0.081231736
59	0x3d9097f0	0.0706023
60	0xbc850d10	-0.01624158
61	0x3c8ddb97	0.017316623
62	0xbca413c7	-0.020028962
63	0x3d8b17af	0.06791627
64	0x3d667e66	0.056272887
65	0x3d0b9d39	0.034085486
66	0x3ceadf2d	0.028670872
67	0xbd583317	-0.052783098
68	0xbbe1fa5d	-0.0068963007
69	0x3d9954e8	0.07486898
70	0xbd7af9ab	-0.06127326
71	0xbbf6dd49	-0.0075337035
72	0x3d7a14e7	0.06105509
73	0xbccbaee6	-0.024863672
74	0xbd4693c6	-0.04848077
75	0x3d129511	0.035786692
76	0xbd8f7c04	-0.07006076
77	0xbc0a5eeb	-0.008445482
78	0x3d30aea5	0.043135304
79	0xba539128	-0.0008070641
80	0x3b3f1a5c	0.0029159999
81	0x3d7f5b0f	0.0623427
82	0x3d329023	0.04359449
83	0x3d1f5f4f	0.038909253
84	0x3d653e24	0.055967465
85	0x3ccc8041	0.0249635
86	0xbc95ef4c	-0.018302582
87	0xbda3e1de	-0.08002065
88	0x3d2de807	0.042457607
89	0xbd4dd92c	-0.05025594
90	0x3d5c6037	0.053802695
91	0x3c97155c	0.018442802
92	0xbd60ecce	-0.054913335
93	0x3d236da7	0.039899494
94	0x3a03feae	0.00050352036
95	0xbd763f5e	-0.060119025
96	0x3d1445dd	0.03619944
97	0x3c475fa0	0.012168795
98	0x3d7c958f	0.061666068
99	0x3d22f94b	0.039788526
100	0xbdb38a79	-0.08766646
101	0x3cfea7cb	0.03108587
102	0x3d4697e2	0.04848469
103	0x3bb369aa	0.0054752426
104	0xbcf190c8	-0.029487982
105	0xbdadf4eb	-0.0849398
106	0xbcbfa722	-0.023395125
107	0x3d4e7216	0.05040177
108	0x3c78451d	0.015153197
109	0xbd92ad4e	-0.071619615
110	0x3db3cbcd	0.08779106
111	0xbd9c8809	-0.07643134
112	0x3d69c4a2	0.05707229
113	0x3d773599	0.06035385
114	0xbc834d5e	-0.016028102
115	0xbd07ddb5	-0.03317042
116	0x3d99d11c	0.075105876
117	0x3d944b50	0.07240927
118	0xbd9ea2d4	-0.07745901
119	0x3d4a1462	0.049335845
120	0x3d6cbe4b	0.057798665
121	0xbd9eb757	-0.07749813
122	0xbd207bc2	-0.039180525
123	0xb9063350	-0.00012798351
124	0x3d1b7907	0.037957218
125	0x3ac396cc	0.001492226
126	0xbd91ea28	-0.0712474
127	0x3b406af6	0.0029360629
128	0xbd31f9ce	-0.043451123
129	0xbd3002dd	-0.04297148
130	0xbd3c3234	-0.045946315
131	0x3cff4ac3	0.031163579
132	0x3cfedf87	0.031112446
133	0x3d9e4117	0.07727259
134	0xbdac1094	-0.084015995
135	0xbd4a0849	-0.049324308
136	0x3c9c6795	0.01909236
137	0xbd9fd6ca	-0.0780464
138	0x3d39409f	0.045227643
139	0x3cb60322	0.02221829
140	0xbd6cbf9f	-0.05779993
141	0xbca0c898	-0.0196269
142	0x3d856bf8	0.06514734
143	0x3d2fc2db	0.042910438
144	0xbd91be42	-0.07116367
145	0x3c930304	0.017945774
146	0x3db7fd3e	0.08983849
147	0xbd401c81	-0.046902183
148	0xbc3e5ee6	-0.011619305
149	0x3d989d66	0.07451896
150	0xbd8e71cd	-0.069552995
151	0xbc4b27d0	-0.012399629
152	0x3d97ec65	0.074181356
153	0x3d4f62fd	0.050631512
154	0xbd8021ad	-0.06256423
155	0xbda4316d	-0.0801724
156	0x3d46c74b	0.048529904
157	0x3c91b0c4	0.017784484
158	0xbd06be48	-0.03289631
159	0x3cc5c6ed	0.024142707
160	0xbd879be3	-0.0662153
161	0xbd8851eb	-0.066562496
162	0x3d754671	0.05988163
163	0xbd24bc4f	-0.040218648
164	0x3c4c107b	0.012455101
165	0xbd71e6ac	-0.059057876
166	0xbd63f50b	-0.055653613
167	0xbd9d3d01	-0.07677651
168	0x3d570705	0.05249693
169	0x3d75383d	0.059868086
170	0xbd87a9cf	-0.06624185
171	0x3d88b40c	0.06674966
172	0x3ca6e56d	0.02037307
173	0xbd17577e	-0.036948673
174	0x3c020916	0.007936737
175	0xbc46ae74	-0.012126554
176	0x3c81a223	0.015824383
177	0x3c08f90b	0.008360158
178	0xbd055b96	-0.032558046
179	0x3d30de54	0.04318078
180	0xbc280c06	-0.010256773
181	0xbca8d2ca	-0.020608325
182	0x3c89e6a5	0.016833613
183	0x3d0540ff	0.03253269
184	0xbd64beec	-0.05584614
185	0x3d93bb7d	0.07213495
186	0x3d9a6332	0.07538451
187	0x3cc9dc99	0.024641322
188	0x3d620ffd	0.05519103
189	0xbd5f2161	-0.054475192
190	0x3cf677f6	0.030086499
191	0xbb626089	-0.0034542403
192	0xbcac40d9	-0.021027016
193	0x3d53bdca	0.05169467
194	0x3b8fee01	0.004392386
195	0x3c92b728	0.017909601
196	0x3d6a1da9	0.057157192
197	0xbd6f323a	-0.05839751
198	0xbda7a119	-0.08185024
199	0xbd9faa9c	-0.07796213
200	0xbc99cdaa	-0.018774826
201	0xbd0fc80e	-0.035102896
202	0xbd8bcb96	-0.0682594
203	0x3d0a6f3c	0.033797488
204	0x3d64eb80	0.055888653
205	0x3d0f8bb6	0.035045348
206	0x3daa268f	0.08308136
207	0xbd75a83f	-0.059974905
208	0xbc4b675c	-0.0124147795
209	0x3c9d65e5	0.019213626
210	0x3cebbc75	0.028776387
211	0xbd33a50e	-0.04385858
212	0x3da099aa	0.07841809
213	0x3c9b6ea2	0.018973652
214	0xbb0cf6d7	-0.0021509433
215	0xbd54e186	-0.05197289
216	0x3bf7b97b	0.007559953
217	0xbd052edf	-0.032515403
218	0x3d80b158	0.06283826
219	0x3d7aed00	0.061261177
220	0x3d5e9bf3	0.054347944
221	0x3db3b40f	0.08774578
222	0x3c82d998	0.015972897
223	0xbcb44d2c	-0.022009455
224	0x3d559c74	0.05215116
225	0x3bab49cc	0.005227303
226	0x3d90f38b	0.07077702
227	0x3b137d8b	0.002250525
228	0xbc0218b8	-0.007940464
229	0x3c73b933	0.014875698
230	0xbd9136b4	-0.07090512
231	0xbda127e5	-0.078689374
232	0x3d8f7b81	0.070059784
233	0xbd30bc91	-0.04314858
234	0xbd85208b	-0.06500348
235	0x3ca56466	0.020189475
236	0xbd496a38	-0.049173564
237	0x3c1d66a9	0.009606996
238	0xbd32b900	-0.04363346
239	0x3d0320ec	0.03201382
240	0xbcfbdb5a	-0.030744243
241	0x3d59ebec	0.05320351
242	0x3d9ec1fd	0.07751844
243	0x3d623b78	0.055232495
244	0x3d9c34b0	0.07627237
245	0x3c431236	0.011906197
246	0xbd8ecbf3	-0.06972494
247	0xbd4ef442	-0.05052591
248	0xbd09cbef	-0.03364175
249	0x3db22a40	0.08699465
250	0x3d8dcc5e	0.069237456
251	0xbc0ae769	-0.008478024
252	0xbd7c5830	-0.06160754
253	0x3cc57fd3	0.024108803
254	0xbcae7850	-0.021297604
255	0xbd2f2a83	-0.04276515

bias f4 [2]
0	0x3d167489	0.03673223
1	0x3cda88b2	0.02667651

exp_avg f4 [128, 4]
0	0xbd4dd57d	-0.050252426
1	0xbda9b8dd	-0.08287213
2	0x3ce081d8	0.027405664
3	0x3e11af15	0.14226945
4	0x3b0beb24	0.0021349872
5	0x3a3abdc2	0.0007123613
6	0xbac0f114	-0.0014720284
7	0xbb5635a1	-0.0032685774
8	0xb8309564	-4.21008e-05
9	0xba045fb3	-0.00050496607
10	0x385265c2	5.016267e-05
11	0x3a45f28c	0.0007551096
12	0x00000000	0.0
13	0x00000000	0.0
14	0x00000000	0.0
15	0x00000000	0.0
16	0x00000000	0.0
17	0x00000000	0.0
18	0x00000000	0.0
19	0x00000000	0.0
20	0x3c5d6606	0.013513094
21	0x3ce248e5	0.02762265
22	0xbbe36805	-0.0069398903
23	0xbd33aa45	-0.043863554
24	0xb9792f10	-0.00023764023
25	0xbb269275	-0.0025416885
26	0x3a16b3d5	0.0005748843
27	0x3bae914b	0.005327379
28	0xba30216f	-0.0006718849
29	0xba3d1930	-0.0007213531
30	0x398d242a	0.0002692056
31	0x3aa77a97	0.0012777623
32	0x3b826a98	0.003979992
33	0x3bc99e75	0.0061529228
34	0xbac2ca94	-0.0014861398
35	0xbc22de8c	-0.009940755
36	0xbcae235a	-0.021257091
37	0xbd0a4543	-0.03375746
38	0x3c860b54	0.016362824
39	0x3d878fc4	0.06619218
40	0xb9058589	-0.00012733614
41	0xba014d71	-0.0004932499
42	0xb9024c9d	-0.00012426307
43	0x3a20f049	0.0006139321
44	0x00000000	0.0
45	0x00000000	0.0
46	0x00000000	0.0
47	0x00000000	0.0
48	0x3b203242	0.0024444018
49	0x3b6a2ed7	0.0035733485
50	0xbb041b12	-0.0020157737
51	0xbbf9ee3b	-0.0076272762
52	0xbc901846	-0.0175897
53	0xbd0976b8	-0.033560485
54	0x3bfcbf9d	0.007713272
55	0x3d525ab2	0.051356025
56	0x3956edd8	0.00020497234
57	0xba406234	-0.0007338852
58	0xb9000b62	-0.00012211272
59	0x3a2ea796	0.00066625455
60	0xba93d70a	-0.0011279297
61	0xb9d53744	-0.00040667702
62	0x3a344b79	0.00068777014
63	0x3acb6807	0.0015518673
64	0xbcfe6ed2	-0.031058703
65	0xbd5b8ed4	-0.05360301
66	0x3c7be378	0.015374057
67	0x3dafdea0	0.08587384
68	0xba652500	-0.000874117
69	0xbb0a1074	-0.0021066936
70	0x3a27e8ed	0.0006405253
71	0x3b8d5ac1	0.004313797
72	0x3ca7af29	0.020469265
73	0x3c419f25	0.011817728
74	0xbc779ab5	-0.015112569
75	0xbd24a272	-0.040193982
76	0xbd44b08d	-0.048019934
77	0xbda0c21b	-0.07849523
78	0x3cc5b200	0.024132729
79	0x3e04eb50	0.1298039
80	0xbc092add	-0.008372036
81	0xbc8c74ff	-0.017145632
82	0x3b91e561	0.004452393
83	0x3ce75aab	0.028241476
84	0x3acf3a9a	0.0015810311
85	0x3a454dbe	0.0007526538
86	0xbae6a907	-0.0017597981
87	0xbba08113	-0.0048981993
88	0x399fe120	0.00030494574
89	0x3b6239da	0.0034519345
90	0xba18540f	-0.00058108656
91	0xbbbc84ab	-0.00575312
92	0x3c8470a7	0.016166998
93	0x3c996e03	0.018729215
94	0xbb992035	-0.004673029
95	0xbd00024d	-0.031252194
96	0x3c0495d0	0.008092359
97	0x3c4fdf73	0.012687552
98	0xbb9b2c87	-0.0047355327
99	0xbcbd7149	-0.023125308
100	0x3d0aaaae	0.03385418
101	0x3d82e871	0.06391991
102	0xbcaa2d7a	-0.020773638
103	0xbde3df68	-0.11126596
104	0xbc801845	-0.015636573
105	0xbcecb9be	-0.028897163
106	0x3c22d706	0.009938961
107	0x3d55418c	0.052064463
108	0xba9c8ec0	-0.0011944398
109	0x390d2388	0.00013460044
110	0x3ac5d8a1	0.0015094468
111	0x3b409711	0.0029386918
112	0x3bedef59	0.0072611985
113	0x3c4cfbaf	0.012511178
114	0xbb575466	-0.0032856702
115	0xbca2de92	-0.01988152
116	0x00000000	0.0
117	0x00000000	0.0
118	0x00000000	0.0
119	0x00000000	0.0
120	0xba76d217	-0.0009415461
121	0xba178041	-0.0005779304
122	0x3a0dcc36	0.0005409153
123	0x3ae6aace	0.0017598511
124	0x3ce53336	0.02797852
125	0x3d30503c	0.043045267
126	0xbc81a4bd	-0.015825624
127	0xbd9e5b9a	-0.07732315
128	0x00000000	0.0
129	0x00000000	0.0
130	0x00000000	0.0
131	0x00000000	0.0
132	0xbbb5ab93	-0.005544135
133	0xbc1039ee	-0.008802874
134	0x3b3767ae	0.0027985382
135	0x3c73220e	0.014839662
136	0x3cb18be3	0.021673148
137	0x3d12d05a	0.03584323
138	0xbc3901fc	-0.011291977
139	0xbd75cf9c	-0.060012445
140	0xbc80b0ad	-0.015709246
141	0xbcfe7f51	-0.031066569
142	0x3c046241	0.008080066
143	0x3d4e63a0	0.05038798
144	0x3c951d30	0.018202394
145	0x3ceab777	0.028651936
146	0xbc29a47a	-0.010354156
147	0xbd51eaf1	-0.05124945
148	0xb7d467cf	-2.5320709e-05
149	0x3737acdd	1.0947898e-05
150	0x38b90d13	8.823923e-05
151	0x3923fc01	0.0001563877
152	0xbca69aa4	-0.02033741
153	0xbd01388f	-0.03154808
154	0x3c3ae932	0.011408137
155	0x3d675f67	0.056487467
156	0xbd51574e	-0.05110865
157	0xbd9a67a5	-0.075393
158	0x3cbf4e7a	0.02335285
159	0x3dfe2b7d	0.124106385
160	0x3cb5454d	0.022127772
161	0x3d12962e	0.035787754
162	0xbc66e09f	-0.01409164
163	0xbd7cd356	-0.061724983
164	0xba1d66a7	-0.0006004371
165	0xbc800b39	-0.015630351
166	0x3b145850	0.0022635646
167	0x3cd696af	0.026194898
168	0xbca8fdcd	-0.020628834
169	0xbd12ce68	-0.035841376
170	0x3cb28083	0.021789795
171	0x3db582eb	0.08862861
172	0x3d6acec5	0.057326097
173	0x3dbb1410	0.09134686
174	0xbd05d613	-0.03267486
175	0xbe2754a8	-0.16340888
176	0x3ccc0e7c	0.02490925
177	0x3d23b4e4	0.039967433
178	0xbc5e2dbe	-0.0135607105
179	0xbd8d9637	-0.06913417
180	0xbb94e12f	-0.0045434455
181	0xbc039873	-0.008031952
182	0x3b1b0a46	0.0023657246
183	0x3c5beae2	0.0134227
184	0x3cf10295	0.029420177
185	0x3d49e9e5	0.049295325
186	0xbc8d8923	-0.017277306
187	0xbdb4586e	-0.08805929
188	0x00000000	0.0
189	0x00000000	0.0
190	0x00000000	0.0
191	0x00000000	0.0
192	0xbacc7f10	-0.0015601832
193	0xbb8a0ed9	-0.0042131958
194	0x3b25e5e2	0.0025314023
195	0x3c258782	0.010103108
196	0x3bef1e28	0.007297296
197	0xba6ae637	-0.0008960696
198	0xbba4badd	-0.0050271587
199	0xbbd30004	-0.006439211
200	0xbc2369f8	-0.009973995
201	0x38ac4061	8.2135906e-05
202	0x3bb73ed0	0.0055922046
203	0x3bf4d26e	0.0074713742
204	0x3b5de7fb	0.0033860195
205	0x3bb07a06	0.00538564
206	0xba989868	-0.00116421
207	0xbc0fc385	-0.008774643
208	0x00000000	0.0
209	0x00000000	0.0
210	0x00000000	0.0
211	0x00000000	0.0
212	0xb8c71291	-9.492518e-05
213	0xb9b445f0	-0.00034384383
214	0x39192af8	0.00014607224
215	0x3a54d46b	0.0008118811
216	0xbcf4ba6c	-0.02987405
217	0xbd4a8a21	-0.049448136
218	0x3c8be1f7	0.017075522
219	0x3db37f91	0.08764566
220	0x00000000	0.0
221	0x00000000	0.0
222	0x00000000	0.0
223	0x00000000	0.0
224	0xbcc760bd	-0.02433812
225	0xbd1b055d	-0.03784691
226	0x3c4ecde1	0.012622328
227	0x3d847eea	0.064695194
228	0x3a92eea9	0.0011210042
229	0x3b14b4e1	0.002269082
230	0xba46def5	-0.0007586324
231	0xbb835efb	-0.0040091253
232	0x3c84c44d	0.016206885
233	0x3cf0b203	0.029381758
234	0xbcc87f0f	-0.024474649
235	0xbdb8cdc2	-0.0902362
236	0xbaf76f27	-0.001887773
237	0xba938eb4	-0.0011257739
238	0x3b0c9502	0.002145112
239	0x3bc39d6e	0.005969695
240	0x3c9417b5	0.01807771
241	0x3d0280dc	0.03186117
242	0xbc29ba8c	-0.010359418
243	0xbd5e5601	-0.05428124
244	0x00000000	0.0
245	0x00000000	0.0
246	0x00000000	0.0
247	0x00000000	0.0
248	0x3b2432e4	0.0025054747
249	0xba372dca	-0.0006987719
250	0xbb32654b	-0.002722102
251	0xbb8e5a4c	-0.0043442603
252	0xbcc34863	-0.023838228
253	0xbd3f8b74	-0.046763852
254	0x3c5080f0	0.012726054
255	0x3d9f83d7	0.07788818

exp_avg_sq f4 [128, 4]
0	0x39af0131	0.0003337949
1	0x3b089bcb	0.0020844813
2	0x38dd7485	0.00010559805
3	0x3baba1fa	0.005237815
4	0x3509b228	5.129573e-07
5	0x36a3d514	4.882584e-06
6	0x35189cf6	5.685282e-07
7	0x378b681d	1.6618573e-05
8	0x3380ae64	5.992186e-08
9	0x3707fc95	8.105436e-06
10	0x341855e0	1.4187344e-07
11	0x379237c1	1.7430519e-05
12	0x00000000	0.0
13	0x00000000	0.0
14	0x00000000	0.0
15	0x00000000	0.0
16	0x00000000	0.0
17	0x00000000	0.0
18	0x00000000	0.0
19	0x00000000	0.0
20	0x37e09190	2.6770664e-05
21	0x39999aac	0.00029297674
22	0x372f551c	1.0450629e-05
23	0x3a353ee8	0.0006913976
24	0x37dae03c	2.6092042e-05
25	0x3a24dc30	0.0006288914
26	0x38523f00	5.0126575e-05
27	0x3b3e84f5	0.0029070948
28	0x3417961e	1.4117583e-07
29	0x36300ac0	2.62323e-06
30	0x34363f16	1.6973021e-07
31	0x3706331a	7.99892e-06
32	0x37604c5c	1.3369219e-05
33	0x3a0f1367	0.0005457908
34	0x37f7ac71	2.9524994e-05
35	0x3af5464c	0.0018712967
36	0x3876095c	5.8659687e-05
37	0x3a872d4a	0.001031318
38	0x3899ea93	7.3393014e-05
39	0x3b464c57	0.0030257904
40	0x351659b4	5.600989e-07
41	0x38419c64	4.6160436e-05
42	0x3598904f	1.1366882e-06
43	0x38fdbf2f	0.00012099591
44	0x00000000	0.0
45	0x00000000	0.0
46	0x00000000	0.0
47	0x00000000	0.0
48	0x350af772	5.1769086e-07
49	0x368913dc	4.08523e-06
50	0x34e6959f	4.2949702e-07
51	0x375057dd	1.2418223e-05
52	0x384a3ab0	4.821521e-05
53	0x39eb9234	0.00044931623
54	0x37616ccd	1.3436377e-05
55	0x3a883b84	0.0010393714
56	0x33e26990	1.0543147e-07
57	0x36d926d8	6.471626e-06
58	0x3489366f	2.5557844e-07
59	0x378f6f8c	1.7098871e-05
60	0x34ef7c88	4.4607827e-07
61	0x374a6889	1.2064477e-05
62	0x35a26d79	1.2101801e-06
63	0x384a286b	4.8198195e-05
64	0x390fc0f4	0.00013709423
65	0x3a580652	0.0008240688
66	0x380ff649	3.4323228e-05
67	0x3af825a4	0.0018932116
68	0x36679435	3.450795e-06
69	0x397635f7	0.00023480492
70	0x3702b70c	7.791223e-06
71	0x3a294cfb	0.00064583094
72	0x38876dfa	6.4577864e-05
73	0x3aab4438	0.0013066595
74	0x3904cabd	0.00012664027
75	0x3b9f5a57	0.0048630643
76	0x39a06f99	0.00030600725
77	0x3b0c8234	0.0021439912
78	0x38e586a0	0.00010944647
79	0x3bbc6001	0.0057487492
80	0x3727ce61	1.0002027e-05
81	0x389df04c	7.531102e-05
82	0x3648efde	2.9941943e-06
83	0x39404a42	0.0001833821
84	0x35cf92d0	1.546543e-06
85	0x388dbd3f	6.758654e-05
86	0x369517c1	4.4433114e-06
87	0x3973af0a	0.00023239493
88	0x36bdc77f	5.6558633e-06
89	0x39849685	0.00025289148
90	0x36c4b502	5.8623273e-06
91	0x3a1ca991	0.0005976195
92	0x384b9b68	4.8543705e-05
93	0x38b2df8b	8.5293395e-05
94	0x3703d4fb	7.857797e-06
95	0x3989721e	0.000262157
96	0x36fcef05	7.538011e-06
97	0x382a0beb	4.0542258e-05
98	0x363250d8	2.6571124e-06
99	0x38e966e1	0.000111294685
100	0x391780f3	0.0001444852
101	0x3aabf966	0.0013120591
102	0x389a3800	7.353723e-05
103	0x3b686901	0.0035462978
104	0x37f44dc7	2.9123285e-05
105	0x398cf3a2	0.000268844
106	0x378133f1	1.5402185e-05
107	0x3a405304	0.0007336589
108	0x35b314a9	1.3342552e-06
109	0x383bd969	4.4786753e-05
110	0x368e87d4	4.2477423e-06
111	0x39349d0e	0.00017224645
112	0x3715824c	8.911429e-06
113	0x3910a8f5	0.00013795852
114	0x368b7cb5	4.1570406e-06
115	0x39ae0945	0.00033194773
116	0x00000000	0.0
117	0x00000000	0.0
118	0x00000000	0.0
119	0x00000000	0.0
120	0x3518bf2f	5.690262e-07
121	0x3779dc1e	1.4892807e-05
122	0x359e2e26	1.1785348e-06
123	0x386a0459	5.5793997e-05
124	0x38d301a5	0.0001006157
125	0x3a566a5d	0.00081793015
126	0x38472756	4.748193e-05
127	0x3b13aac4	0.0022532204
128	0x00000000	0.0
129	0x00000000	0.0
130	0x00000000	0.0
131	0x00000000	0.0
132	0x368c2a3c	4.177242e-06
133	0x3768bf13	1.38727655e-05
134	0x354f19f9	7.7151304e-07
135	0x380c3606	3.3428914e-05
136	0x388bda16	6.668658e-05
137	0x3a01c7a8	0.00049507106
138	0x37c45829	2.3406074e-05
139	0x3a9b603b	0.001185424
140	0x3815dfd8	3.573284e-05
141	0x399f99e9	0.00030441515
142	0x3744c274	1.1727785e-05
143	0x3a4153fe	0.00073748815
144	0x3830fbff	4.219636e-05
145	0x39ba77ec	0.00035566033
146	0x37a4214b	1.9565827e-05
147	0x3a7db136	0.00096775906
148	0x33b43c72	8.392898e-08
149	0x3591368e	1.0819219e-06
150	0x3435765b	1.6899996e-07
151	0x35be00d1	1.4156341e-06
152	0x385c561d	5.2532287e-05
153	0x39d8d407	0.00041356703
154	0x37bd7073	2.2582919e-05
155	0x3a9308f7	0.0011217882
156	0x39bb89c8	0.00035770074
157	0x3b359a27	0.002771029
158	0x3907f593	0.00012966087
159	0x3bed4cc1	0.007241816
160	0x38755806	5.849453e-05
161	0x3a2c794e	0.0006579355
162	0x38494c0d	4.7992962e-05
163	0x3aee9167	0.0018201292
164	0x37554997	1.2712923e-05
165	0x3a8907c6	0.0010454587
166	0x37fdef6d	3.0271442e-05
167	0x3b2fca72	0.0026823548
168	0x3875da14	5.8615653e-05
169	0x3a9824a3	0.0011607598
170	0x39045188	0.00012618874
171	0x3b918dcc	0.0044419523
172	0x39d8a1ed	0.00041319375
173	0x3b5bfbf1	0.0033566917
174	0x3946d3e8	0.00018961693
175	0x3c16b614	0.009198684
176	0x38a96d63	8.078923e-05
177	0x3a1dfe57	0.00060269743
178	0x37f73479	2.9469129e-05
179	0x3ac0d0dd	0.0014710684
180	0x363b364f	2.7896783e-06
181	0x3785ccb3	1.5950156e-05
182	0x3537f893	6.8534536e-07
183	0x382219da	3.8647886e-05
184	0x38df7db9	0.00010656886
185	0x3a6aa80b	0.0008951432
186	0x38544cd7	5.06163e-05
187	0x3b2152ee	0.002461608
188	0x00000000	0.0
189	0x00000000	0.0
190	0x00000000	0.0
191	0x00000000	0.0
192	0x354470c0	7.317976e-07
193	0x37da88d1	2.6051335e-05
194	0x361169ab	2.166819e-06
195	0x38b1b8a7	8.474412e-05
196	0x37181ae8	9.066171e-06
197	0x394798c2	0.00019035026
198	0x37915440	1.7324579e-05
199	0x3a351e58	0.00069091236
200	0x378d12d2	1.6817274e-05
201	0x399d0fa6	0.00029957033
202	0x37f625c4	2.9343071e-05
203	0x3a945e05	0.0011319524
204	0x3610bfb5	2.156926e-06
205	0x36b6970c	5.441607e-06
206	0x3498ee15	2.8485434e-07
207	0x377ccf41	1.50686255e-05
208	0x00000000	0.0
209	0x00000000	0.0
210	0x00000000	0.0
211	0x00000000	0.0
212	0x3436e2e0	1.7032608e-07
213	0x369a5c54	4.600306e-06
214	0x34f75f06	4.6076474e-07
215	0x37a05d80	1.9117026e-05
216	0x38e40ba9	0.00010874059
217	0x3a4394a0	0.00074608065
218	0x38259c79	3.9484792e-05
219	0x3af9238e	0.0019007789
220	0x00000000	0.0
221	0x00000000	0.0
222	0x00000000	0.0
223	0x00000000	0.0
224	0x38a601cb	7.915831e-05
225	0x39e2a9e9	0.00043232672
226	0x37afff7c	2.0980595e-05
227	0x3a88b9ed	0.0010431387
228	0x34b0bd32	3.2920212e-07
229	0x37207082	9.562938e-06
230	0x351088d5	5.3843297e-07
231	0x37e44fd0	2.7216884e-05
232	0x385b8737	5.2339597e-05
233	0x3ad2cba3	0.0016082417
234	0x3921f48b	0.00015445256
235	0x3bba8144	0.005691679
236	0x366c3d9a	3.5202597e-06
237	0x390d7b8c	0.00013492833
238	0x37238fbc	9.749023e-06
239	0x3a011861	0.0004924592
240	0x383ed3b0	4.549668e-05
241	0x3a187cc6	0.00058169325
242	0x37dfeb08	2.6693117e-05
243	0x3ac65f8b	0.0015134675
244	0x00000000	0.0
245	0x00000000	0.0
246	0x00000000	0.0
247	0x00000000	0.0
248	0x3616f35d	2.2493398e-06
249	0x38979f54	7.229918e-05
250	0x36d551e2	6.357427e-06
251	0x3988f2e5	0.00026120912
252	0x38a5a996	7.899401e-05
253	0x3a2479d3	0.0006274257
254	0x37c95af0	2.4003413e-05
255	0x3ac634f8	0.0015121987

exp_avg f4 [128]
0	0xbe481e2f	-0.19542764
1	0x3c1285a6	0.008942997
2	0x39b6618d	0.00034786426
3	0x00000000	0.0
4	0x00000000	0.0
5	0x3d4c2bf1	0.049846593
6	0x3b4dd0fe	0.0031405087
7	0xbb0f2976	-0.002184478
8	0xbc1f1936	-0.009710601
9	0xbdd0d63a	-0.101971105
10	0x3ac2ebd1	0.0014871304
11	0x00000000	0.0
12	0x3c60fb50	0.013731793
13	0xbd5cb972	-0.053887792
14	0x3a44a5b2	0.0007501497
15	0x3b1dcafc	0.0024077287
16	0xbe10717a	-0.14105788
17	0x3be863ae	0.007091961
18	0x3db8dc8f	0.09026443
19	0xbe29f6fc	-0.16598123
20	0xbd079e88	-0.03311017
21	0xbc0bece8	-0.00854037
22	0xbb4dd892	-0.0031409604
23	0x3d1aad1a	0.03776274
24	0x3cf3bcb8	0.029753074
25	0x3dfb28bd	0.122636296
26	0xbd6bd7ed	-0.05757897
27	0x3b7dd650	0.0038732477
28	0x3c9c2927	0.019062592
29	0x00000000	0.0
30	0x3a8b4528	0.0010625469
31	0x3dcf657b	0.10126778
32	0x00000000	0.0
33	0xbcbaa346	-0.022782933
34	0x3dbaac25	0.09114865
35	0xbd61cb2e	-0.055125408
36	0x3d85f249	0.06540353
37	0x3994474c	0.0002828188
38	0xbd9312ef	-0.07181346
39	0xbe1a7a42	-0.150857
40	0x3dbe7e19	0.09301395
41	0xbc73440d	-0.014847768
42	0xbe04be41	-0.12963201
43	0x3e4eb78b	0.20187204
44	0x3dc0d61e	0.094158396
45	0xbcb47033	-0.022026157
46	0x3dcce416	0.100044414
47	0x00000000	0.0
48	0xbc4e52eb	-0.012593011
49	0x3bfb2726	0.007664579
50	0xbb81f146	-0.0039655296
51	0x3bcd665d	0.006268306
52	0x00000000	0.0
53	0x39caf3b4	0.00038710015
54	0xbdd1a625	-0.10236768
55	0x00000000	0.0
56	0xbdcc77e0	-0.09983802
57	0x3b8be976	0.004269774
58	0x3e0a3e47	0.1350032
59	0x3c22eb2f	0.009943767
60	0x3d728522	0.059208997
61	0x00000000	0.0
62	0xbb9ea24e	-0.0048411256
63	0xbdc7e9b3	-0.097613715
64	0xbdeff603	-0.11716845
65	0x3cfa5659	0.030558752
66	0xbd1a6f39	-0.037703726
67	0x3dff3144	0.124605685
68	0xbc1e86b4	-0.00967567
69	0xbbd3f745	-0.006468686
70	0xbd064611	-0.032781664
71	0xbdcf9d84	-0.101374656
72	0xbd1113ad	-0.035419155
73	0xbc41f0ca	-0.011837194
74	0x00000000	0.0
75	0xba8fdc4a	-0.0010975685
76	0x3e38bd01	0.1804085
77	0xbc09cac3	-0.008410159
78	0xbbacf0be	-0.005277722
79	0xbd6eed13	-0.05833156
80	0xbca5c54e	-0.020235684
81	0xbd6dc56a	-0.058049597
82	0xbc9cb700	-0.01913023
83	0xbaf188d3	-0.0018427618
84	0x3ae5fe98	0.0017547188
85	0xba349f93	-0.00068902335
86	0x3c47923e	0.012180863
87	0x3b616790	0.0034394003
88	0x3aeeff95	0.0018234128
89	0x3b953994	0.004553983
90	0x3c672001	0.014106751
91	0xbb1309e0	-0.0022436306
92	0x3e2f4530	0.17116237
93	0xbb80fb2e	-0.003936193
94	0x3caa9c56	0.0208265
95	0x3d1f6120	0.038910985
96	0x3ce4b4cd	0.027918244
97	0xbbd0b396	-0.0063690646
98	0x3c95948e	0.018259313
99	0xbc384e3c	-0.011249121
100	0x3d07c6aa	0.033148445
101	0x3b4ed09c	0.0031557446
102	0xb8a8e4ad	-8.0534584e-05
103	0x3aab795a	0.001308243
104	0x3c7e00fe	0.015503166
105	0x3d287fc2	0.041137464
106	0x3b3f985f	0.0029235107
107	0xbd2d9b4a	-0.042384423
108	0x3c592080	0.0132523775
109	0x3da7b6f3	0.08189192
110	0xbe665656	-0.22493872
111	0x3e1778bc	0.1479215
112	0x3987cd4d	0.00025902168
113	0xbbfaaafe	-0.0076497784
114	0x3df5243e	0.11969803
115	0x3e119ba9	0.14219536
116	0x3b6ac3aa	0.0035822191
117	0xbd9c0fc5	-0.07620195
118	0x3b4451ae	0.0029955911
119	0xbe1ffc7d	-0.1562366
120	0xbe05e19f	-0.13074349
121	0x00000000	0.0
122	0x3dd2fee4	0.10302523
123	0xbc0cd106	-0.008594757
124	0x3cec59f2	0.028851483
125	0xbb00cce1	-0.0019653367
126	0x00000000	0.0
127	0xbc30000a	-0.010742197

exp_avg_sq f4 [128]
0	0x3badca17	0.005303632
1	0x378dbc0c	1.6896076e-05
2	0x36a811cd	5.0088624e-06
3	0x00000000	0.0
4	0x00000000	0.0
5	0x39f57860	0.00046819728
6	0x3adb2ab0	0.0016721096
7	0x36d23c9b	6.265543e-06
8	0x3a782e5c	0.00094673573
9	0x3b213b13	0.0024601861
10	0x383ee799	4.5515222e-05
11	0x00000000	0.0
12	0x3756c238	1.2800614e-05
13	0x3a1fa004	0.0006089213
14	0x370dc22f	8.449467e-06
15	0x382e5a71	4.1569063e-05
16	0x3b1bdbc2	0.002378211
17	0x39891afe	0.00026150787
18	0x3b9081e0	0.0044100136
19	0x3b9c8a8a	0.0047772573
20	0x390a2efc	0.00013178209
21	0x39287482	0.00016065131
22	0x395d61bd	0.00021112613
23	0x39b077a1	0.00033658466
24	0x38b6ab35	8.710326e-05
25	0x3b529ae2	0.0032135774
26	0x3a0a35b8	0.0005272287
27	0x3921630f	0.00015391059
28	0x392cc5b5	0.0001647685
29	0x00000000	0.0
30	0x382f2545	4.175796e-05
31	0x3ae12561	0.0017177277
32	0x00000000	0.0
33	0x383d90f1	4.51961e-05
34	0x3aaea31f	0.001332376
35	0x3a002eb2	0.00048897706
36	0x3a35b6af	0.0006931824
37	0x36ac9c19	5.1441716e-06
38	0x3a538bc3	0.00080698373
39	0x3b9715be	0.004610746
40	0x3ace26c2	0.0015728103
41	0x3a88709d	0.0010409538
42	0x3b8ac692	0.004235097
43	0x3be50f16	0.006990324
44	0x3abf6a78	0.0014603874
45	0x3849fca4	4.8157424e-05
46	0x3af8c915	0.0018980826
47	0x00000000	0.0
48	0x389bd028	7.429748e-05
49	0x3a0aeefc	0.00052998937
50	0x3a8742b1	0.0010319558
51	0x3708efcd	8.162065e-06
52	0x00000000	0.0
53	0x378894c8	1.6281745e-05
54	0x3acab471	0.0015465153
55	0x00000000	0.0
56	0x3a944060	0.0011310689
57	0x37a32c2c	1.9451683e-05
58	0x3b9ecaca	0.0048459517
59	0x39b599df	0.00034637653
60	0x3a690723	0.0008889308
61	0x00000000	0.0
62	0x395e7683	0.00021215719
63	0x3a9adaee	0.0011814514
64	0x3b1c7fc0	0.0023879856
65	0x397a68a7	0.00023880844
66	0x391112ac	0.00013835233
67	0x3ae3206f	0.0017328392
68	0x39b94995	0.00035340773
69	0x3b194c1a	0.0023391307
70	0x394781b5	0.00019026439
71	0x3adb3e8c	0.0016727014
72	0x3aa39eea	0.0012483273
73	0x371f6d1f	9.502545e-06
74	0x00000000	0.0
75	0x35680f24	8.644877e-07
76	0x3ba12d82	0.004918755
77	0x391abb25	0.00014756301
78	0x3907e9d9	0.00012961718
79	0x3a2a147a	0.00064880366
80	0x38659ceb	5.4743996e-05
81	0x3a03c686	0.0005026836
82	0x3800378d	3.0569314e-05
83	0x38f0d9b5	0.00011484643
84	0x37b69c13	2.1768768e-05
85	0x369022d5	4.2955894e-06
86	0x3772de02	1.4476014e-05
87	0x38897a1c	6.555414e-05
88	0x398fcdf1	0.00027428524
89	0x38af9c45	8.373758e-05
90	0x38662bae	5.4876953e-05
91	0x38af251e	8.351564e-05
92	0x3ba47826	0.0050192056
93	0x38fedde1	0.00012152992
94	0x38b8165d	8.777969e-05
95	0x39b6d48f	0.00034872114
96	0x3848efff	4.790723e-05
97	0x36fab855	7.4720397e-06
98	0x3884c0fa	6.330195e-05
99	0x3958a5be	0.00020661109
100	0x3a42105e	0.00074029516
101	0x386ed9c7	5.6946443e-05
102	0x39c3e95b	0.00037367162
103	0x39f0801b	0.00045871813
104	0x3891bef7	6.949709e-05
105	0x39894324	0.000261807
106	0x3927ee4a	0.0001601513
107	0x3964ce5c	0.00021820649
108	0x3a1250bc	0.00055814884
109	0x3a8ecefa	0.0010895424
110	0x3bc92eee	0.0061396277
111	0x3b680c6b	0.0035407792
112	0x3a176718	0.0005775555
113	0x368f460e	4.2698875e-06
114	0x3b0045b0	0.0019572787
115	0x3b5e1d0a	0.003389182
116	0x35fe0487	1.8925792e-06
117	0x3a4ba82a	0.0007768894
118	0x37266f93	9.920349e-06
119	0x3b6906d8	0.0035557058
120	0x3b217b6b	0.0024640213
121	0x00000000	0.0
122	0x3b0c16b3	0.0021375834
123	0x36c94710	5.9985396e-06
124	0x3aa3260b	0.0012447251
125	0x37d36b83	2.5203224e-05
126	0x00000000	0.0
127	0x395591d4	0.00020367588

exp_avg f4 [2, 128]
0	0xbee5c69c	-0.4487809
1	0xbce6b799	-0.028163718
2	0x39b505d9	0.00034527367
3	0x00000000	0.0
4	0x00000000	0.0
5	0xbefaa431	-0.48953393
6	0x3ac328cf	0.0014889481
7	0xbee23298	-0.44179225
8	0xbc84d044	-0.01621259
9	0xbeab7541	-0.33487895
10	0xbbea24a0	-0.0071454793
11	0x00000000	0.0
12	0xbda08916	-0.07838647
13	0xbdba4f20	-0.09097123
14	0xbbe55267	-0.0069983485
15	0x3d679748	0.056540757
16	0xbed844b7	-0.42239925
17	0xba2f2f84	-0.00066828006
18	0xbcf5a926	-0.029987883
19	0xbe9fc869	-0.31207588
20	0xbe94882b	-0.29010138
21	0x3d238b15	0.03992756
22	0xbb526b64	-0.0032107467
23	0xbd243cd8	-0.040097088
24	0xbeab316c	-0.33436143
25	0xbeb3a679	-0.35087946
26	0xbe264cef	-0.16240285
27	0x3dbc606a	0.09198077
28	0xbbc3fa40	-0.00598076
29	0x00000000	0.0
30	0x3b58b46d	0.0033066527
31	0xbf70219d	-0.9380129
32	0x00000000	0.0
33	0xbf40a409	-0.752503
34	0xbf27e23b	-0.65579575
35	0xbe85f811	-0.26165822
36	0xbf60b77e	-0.87779987
37	0xb7e3de51	-2.7164033e-05
38	0xbf0f1563	-0.5589201
39	0xbd8cc060	-0.0687263
40	0xbd5ba3b0	-0.0536229
41	0x3c86a8f7	0.01643799
42	0xbdc1d318	-0.09464091
43	0xbf758ed7	-0.9592108
44	0xbf5adfc7	-0.8549771
45	0xbe8bfbbf	-0.27340505
46	0xbf0f78f6	-0.56043947
47	0x00000000	0.0
48	0xbd389cd8	-0.045071453
49	0x3d1550d6	0.036454044
50	0x3d656414	0.056003645
51	0xbc040cf3	-0.008059728
52	0x00000000	0.0
53	0x3d1276b2	0.035757728
54	0xbf5e9bb8	-0.8695636
55	0x00000000	0.0
56	0xbf3358be	-0.70057285
57	0xbf0328ee	-0.5123433
58	0xbe171511	-0.1475413
59	0x3d1136ca	0.03545264
60	0xbcbd6495	-0.02311925
61	0x00000000	0.0
62	0x3dc12a3f	0.09431886
63	0xbf182f12	-0.59446824
64	0xbef9dc36	-0.4880082
65	0xbf0ac841	-0.54211813
66	0xbf9d799b	-1.2302736
67	0xbed3acab	-0.41342673
68	0x3d35b546	0.04436233
69	0x3ce9df6d	0.02854892
70	0xbee410d6	-0.44544095
71	0xbf204d25	-0.62617713
72	0x3d47c3a8	0.048770577
73	0xbfa2bc02	-1.2713625
74	0x00000000	0.0
75	0xbd2c519a	-0.04207001
76	0xbe9f58e5	-0.3112251
77	0x3c70f685	0.014707212
78	0xbc1ca595	-0.009560962
79	0xbea6f1ee	-0.32606453
80	0xbed69e9b	-0.4191788
81	0xbe809418	-0.25112987
82	0xbf51562f	-0.8177213
83	0x3aaadc9d	0.0013035719
84	0xbbffa3ed	-0.007801524
85	0xba92101f	-0.001114372
86	0xbdcd67ff	-0.10029601
87	0xbb0591cf	-0.0020381098
88	0x3d925b09	0.0714627
89	0x3b9e79fb	0.0048363185
90	0xbe32b9e6	-0.17453727
91	0xbb9e93a1	-0.004839376
92	0xbea6efe1	-0.32604888
93	0xbba22523	-0.0049482747
94	0xbe7efbee	-0.24900791
95	0xbe0b5a6d	-0.13608713
96	0xbeb1be3c	-0.3471545
97	0xbe8e08e9	-0.27741173
98	0xbf5809fa	-0.84390223
99	0x3bc3951f	0.0059687044
100	0x3bdb40ab	0.0066910586
101	0x3c6c1cbe	0.01441115
102	0x39e92f24	0.00044476346
103	0xb8e1dd98	-0.00010770111
104	0xbb044024	-0.0020179832
105	0xbde20f12	-0.11038031
106	0x3a790217	0.00094989076
107	0xbf15b8f7	-0.5848536
108	0x3d8a6f96	0.067595646
109	0xbe27f924	-0.16403633
110	0xbfd1a41f	-1.6378211
111	0xbf0bd80c	-0.54626536
112	0x3acb62f4	0.0015517161
113	0xbf1d5f4f	-0.61473554
114	0xbe8c6b8c	-0.27425802
115	0xbf756888	-0.9586263
116	0xbe1f8b3b	-0.15580456
117	0xbf02249a	-0.508371
118	0xbd6a9c72	-0.057278104
119	0xbebb8165	-0.36622158
120	0xbe7bd700	-0.24593735
121	0x00000000	0.0
122	0xbe14d0d9	-0.14532794
123	0xbd51b3ec	-0.051196977
124	0x3d09f357	0.033679333
125	0xbb16fc12	-0.002303843
126	0x00000000	0.0
127	0x3c062fed	0.008190137
128	0x3ee5c69b	0.44878086
129	0x3ce6b786	0.028163683
130	0xb9b505d9	-0.00034527367
131	0x00000000	0.0
132	0x00000000	0.0
133	0x3efaa430	0.4895339
134	0xbac328cc	-0.0014889478
135	0x3ee23298	0.44179225
136	0x3c84d043	0.016212588
137	0x3eab7541	0.33487895
138	0x3bea2495	0.007145474
139	0x00000000	0.0
140	0x3da0890c	0.078386396
141	0x3dba4f21	0.09097124
142	0x3be55267	0.0069983485
143	0xbd679748	-0.056540757
144	0x3ed844b7	0.42239925
145	0x3a2f2f95	0.00066828105
146	0x3cf5a91b	0.029987862
147	0x3e9fc869	0.31207588
148	0x3e94882b	0.29010138
149	0xbd238b19	-0.039927576
150	0x3b526b60	0.0032107458
151	0x3d243cd8	0.040097088
152	0x3eab316a	0.33436137
153	0x3eb3a679	0.35087946
154	0x3e264ced	0.16240282
155	0xbdbc606b	-0.09198078
156	0x3bc3fa30	0.0059807524
157	0x00000000	0.0
158	0xbb58b44b	-0.0033066447
159	0x3f70219b	0.9380128
160	0x00000000	0.0
161	0x3f40a409	0.752503
162	0x3f27e239	0.65579563
163	0x3e85f811	0.26165822
164	0x3f60b77d	0.8777998
165	0x37e3de74	2.7164097e-05
166	0x3f0f1563	0.5589201
167	0x3d8cc05f	0.068726294
168	0x3d5ba3ae	0.053622894
169	0xbc86a8f7	-0.01643799
170	0x3dc1d312	0.094640866
171	0x3f758ed6	0.95921075
172	0x3f5adfc5	0.85497695
173	0x3e8bfbbf	0.27340505
174	0x3f0f78f6	0.56043947
175	0x00000000	0.0
176	0x3d389cd8	0.045071453
177	0xbd1550d8	-0.03645405
178	0xbd656413	-0.05600364
179	0x3c040cf2	0.008059727
180	0x00000000	0.0
181	0xbd1276b3	-0.03575773
182	0x3f5e9bb5	0.8695634
183	0x00000000	0.0
184	0x3f3358be	0.70057285
185	0x3f0328ed	0.5123432
186	0x3e17150d	0.14754124
187	0xbd1136cc	-0.03545265
188	0x3cbd6494	0.023119248
189	0x00000000	0.0
190	0xbdc12a45	-0.094318904
191	0x3f182f12	0.59446824
192	0x3ef9dc36	0.4880082
193	0x3f0ac841	0.54211813
194	0x3f9d799b	1.2302736
195	0x3ed3aca7	0.4134266
196	0xbd35b540	-0.044362307
197	0xbce9df75	-0.028548935
198	0x3ee410d2	0.44544083
199	0x3f204d24	0.6261771
200	0xbd47c3af	-0.048770603
201	0x3fa2bc03	1.2713627
202	0x00000000	0.0
203	0x3d2c5194	0.042069986
204	0x3e9f58e4	0.31122506
205	0xbc70f688	-0.014707215
206	0x3c1ca58f	0.009560957
207	0x3ea6f1ed	0.3260645
208	0x3ed69e99	0.41917875
209	0x3e809417	0.25112984
210	0x3f51562d	0.8177212
211	0xbaaadc9d	-0.0013035719
212	0x3bffa3ec	0.0078015234
213	0x3a92101a	0.0011143715
214	0x3dcd67fc	0.10029599
215	0x3b0591cf	0.0020381098
216	0xbd925b0b	-0.07146271
217	0xbb9e79fc	-0.004836319
218	0x3e32b9e5	0.17453726
219	0x3b9e9398	0.004839372
220	0x3ea6efe1	0.32604888
221	0x3ba2251a	0.0049482705
222	0x3e7efbec	0.24900788
223	0x3e0b5a6d	0.13608713
224	0x3eb1be3d	0.34715453
225	0x3e8e08e9	0.27741173
226	0x3f5809fa	0.84390223
227	0xbbc39516	-0.0059687
228	0xbbdb40e5	-0.0066910856
229	0xbc6c1cbf	-0.0144111505
230	0xb9e92f28	-0.00044476357
231	0x38e1dd92	0.00010770107
232	0x3b044024	0.0020179832
233	0x3de20f12	0.11038031
234	0xba790337	-0.0009499075
235	0x3f15b8f7	0.5848536
236	0xbd8a6f9c	-0.06759569
237	0x3e27f923	0.16403632
238	0x3fd1a41f	1.6378211
239	0x3f0bd80c	0.54626536
240	0xbacb62f4	-0.0015517161
241	0x3f1d5f4f	0.61473554
242	0x3e8c6b8d	0.27425805
243	0x3f756886	0.95862615
244	0x3e1f8b3a	0.15580454
245	0x3f02249a	0.508371
246	0x3d6a9c71	0.0572781
247	0x3ebb8161	0.36622146
248	0x3e7bd6fe	0.24593732
249	0x00000000	0.0
250	0x3e14d0da	0.14532796
251	0x3d51b3e8	0.051196963
252	0xbd09f359	-0.03367934
253	0x3b16fbee	0.0023038345
254	0x00000000	0.0
255	0xbc062ff1	-0.008190141
